saved_models/TinyVGG_checkpoint_96.pt (torch, 104187 bytes, 14 tensors)

weight f4 [10, 1, 3, 3]
0	0xbe2943e5	-0.16529806
1	0x3d10c031	0.035339538
2	0xbd4da9e1	-0.050210837
3	0xbe6d8efd	-0.23199077
4	0xbe61bdfe	-0.22045133
5	0xbea6163c	-0.32438838
6	0xbdcef8f2	-0.10106076
7	0x3e9895af	0.298017
8	0xbe1f8a3b	-0.15580074
9	0xbd80ac8e	-0.06282912
10	0x3e465dca	0.19371715
11	0x3e92dfae	0.2868628
12	0x3e0c82bf	0.1372175
13	0x3ed19cdd	0.4093999
14	0x3e284003	0.16430669
15	0x3e799347	0.24372588
16	0x3e4b53b5	0.1985615
17	0x3ee24c68	0.44198918
18	0xbbffd2b6	-0.007807101
19	0x3e221ed6	0.15832075
20	0xbd080809	-0.033210788
21	0xbd8960b4	-0.06707898
22	0xbea389fb	-0.31941208
23	0xbe2aefc4	-0.16693026
24	0xbd1063ba	-0.035251357
25	0x3e0504f2	0.12990168
26	0x3db5ab21	0.08870531
27	0xbe7f7816	-0.24948153
28	0xbe2fecde	-0.17180201
29	0xbca4e5a8	-0.02012904
30	0x3ec72abb	0.38899788
31	0x3eb06f33	0.34459838
32	0x3f049c86	0.51801336
33	0xbd6c6bc9	-0.05771998
34	0x3daf5218	0.0856058
35	0x3eca0b6a	0.39461833
36	0xbe831d7e	-0.25608438
37	0xbd623d85	-0.05523445
38	0xbccd4357	-0.025056524
39	0xbe7c463a	-0.24636164
40	0x3e68077f	0.2265911
41	0xbe680544	-0.22658259
42	0x3da79ba4	0.08183983
43	0xbe9e229f	-0.3088579
44	0xbe4027f9	-0.18765248
45	0x3db9fe1d	0.090816714
46	0x3d9dda64	0.0770767
47	0xbe1bbf9e	-0.15209815
48	0x3e918b6d	0.28426686
49	0xbe5399e8	-0.2066418
50	0xbe9ec3e6	-0.31008834
51	0x3ce93c5b	0.028471163
52	0xbe671fe5	-0.2257076
53	0xbc57690a	-0.013147602
54	0xbdd577f5	-0.104232706
55	0xbc99405a	-0.018707443
56	0x3e35c920	0.17752504
57	0xbd43a0c6	-0.047760747
58	0xbea6aa97	-0.32552025
59	0xbe9dde58	-0.30833697
60	0x3eab6973	0.3347889
61	0x3ea3a59b	0.31962284
62	0xbe75b52b	-0.23994891
63	0xbe224c09	-0.15849318
64	0xbe5239f9	-0.20529927
65	0x3e017fca	0.12646404
66	0xbea5bc4e	-0.32370228
67	0xbe2d454e	-0.16920969
68	0x3ea044c0	0.31302452
69	0xbe563cf1	-0.20921685
70	0x3cb0cc2f	0.021581737
71	0xbdcfee5c	-0.10152885
72	0x3cefb5d5	0.029261509
73	0xb99ba7cc	-0.00029688922
74	0xbdb8b44f	-0.09018766
75	0x3e309f68	0.17248309
76	0xbe843d98	-0.25828242
77	0x3e02b357	0.12763725
78	0xbe30f93b	-0.17282574
79	0x3dc53783	0.09629729
80	0x3cbb7043	0.022880679
81	0x3e08823a	0.13330927
82	0x3ecd0d85	0.40049377
83	0xbd3fd455	-0.046833355
84	0x3e23ad34	0.1598404
85	0x3eb2dd60	0.3493452
86	0xbe599dfc	-0.21251673
87	0x3df1cddd	0.118068434
88	0x3e9fff5a	0.31249505
89	0x3de582f7	0.1120662

bias f4 [10]
0	0xbe44ef41	-0.19231893
1	0xbe5a61f9	-0.21326436
2	0xbc2d20e2	-0.010566922
3	0xbe5cf17d	-0.21576495
4	0xbe865555	-0.26236978
5	0xbea9c4f2	-0.3315807
6	0x3d2b0148	0.04174927
7	0xbdd161b4	-0.102237135
8	0xbe487c0b	-0.19578569
9	0x3b6660df	0.0035152955

weight f4 [10, 10, 3, 3]
0	0x3df4ab49	0.119467326
1	0x3d38898f	0.04505306
2	0x3da4fec2	0.08056404
3	0x3d80925c	0.06277916
4	0xbd808bbf	-0.062766545
5	0x3dd4c9ef	0.10390078
6	0x3e0583c8	0.13038552
7	0x3d625b49	0.055262838
8	0x3ddf7898	0.10911673
9	0x3c668e4c	0.014072012
10	0xbd511af4	-0.051051095
11	0xbbcc648e	-0.006237573
12	0xbd4ce9c4	-0.050027624
13	0x3db42d3b	0.087976895
14	0x3e182734	0.14858705
15	0xbd26c315	-0.04071339
16	0xbc2eff36	-0.010680964
17	0x3d17051e	0.036870115
18	0x3dc02bbe	0.09383343
19	0xbd4261e7	-0.04745665
20	0x3c6e879c	0.014558699
21	0x3ca4802b	0.020080646
22	0xbd493c53	-0.049129795
23	0xbd83ead0	-0.06441271
24	0xbd29d855	-0.041466076
25	0x3d86dcf6	0.06585114
26	0xbd5932b5	-0.053026874
27	0xbc5c7ffe	-0.01345825
28	0x3a9494de	0.001133587
29	0x3e1c01e7	0.152351
30	0x3d2c3392	0.04204137
31	0x3db35024	0.0875552
32	0x3e11157a	0.14168349
33	0x3e0c3c39	0.13694848
34	0x3e1c37bc	0.15255636
35	0x3e080434	0.13282853
36	0x3c52697f	0.012842535
37	0x3d7d31f6	0.061815225
38	0x3b9c3d6d	0.0047680647
39	0x3dfcd76e	0.123457775
40	0x3d3111c2	0.043229826
41	0x3ddf14fd	0.10892675
42	0x3d746d82	0.059674747
43	0x3ca65202	0.020302776
44	0x3cc77e64	0.02435226
45	0x3c8210d6	0.015877169
46	0xbd8dbd33	-0.069208525
47	0xbda6fcd4	-0.08153692
48	0x3da5a9ce	0.08089028
49	0x3d5e1ec4	0.05422856
50	0xbbd53351	-0.0065063615
51	0x3dc6d46c	0.09708485
52	0xbdc2a803	-0.09504702
53	0x3caf97cc	0.021434687
54	0x3d8c1e2a	0.06841691
55	0xbd693006	-0.056930564
56	0xbdb99965	-0.09062461
57	0xbd7dc261	-0.061952952
58	0x3d816223	0.06317546
59	0xbd82f2c4	-0.0639396
60	0x3bbcb657	0.0057590413
61	0xbca264fe	-0.019823547
62	0xbd9375b7	-0.07200187
63	0x3e109427	0.14119016
64	0x3e03d578	0.128744
65	0xbcc01ea3	-0.023452109
66	0x3e007520	0.1254468
67	0xbcf778d8	-0.03020899
68	0xbd7d9565	-0.06191005
69	0xbc349d6e	-0.011023862
70	0x3ce534e1	0.027979316
71	0xbd425b50	-0.047450364
72	0xbc83bbc6	-0.016080748
73	0x3dd71dc9	0.10503728
74	0xbd981864	-0.07426527
75	0x3d8e89b9	0.06959862
76	0x3cccea7c	0.025014155
77	0xbbf63432	-0.0075135464
78	0x3ceb500c	0.028724693
79	0xbd7488c7	-0.059700754
80	0x3d611dcd	0.05496006
81	0xbe155acd	-0.14585419
82	0x3d725947	0.059167173
83	0xbdc15636	-0.094402716
84	0xbdd07a3a	-0.10179563
85	0x3dd5356d	0.10410581
86	0x3df40185	0.11914352
87	0x3d94afa6	0.07260065
88	0xbda6a014	-0.08136001
89	0x3d8cfafc	0.06883809
90	0x3d09c8cc	0.03363876
91	0x3db5b4aa	0.088723496
92	0xbda9b0b7	-0.08285659
93	0x3db202a4	0.0869191
94	0x3da0f047	0.07858329
95	0x3dad9edd	0.084775664
96	0x3cd91a5a	0.026501823
97	0xbc0dac42	-0.0086470265
98	0xbdbd6582	-0.09247877
99	0x3d1083e4	0.03528203
100	0xbdce7bf1	-0.10082234
101	0x3beeb900	0.0072852373
102	0x3dba577d	0.09098718
103	0x3d8872f7	0.06662553
104	0xbd496b1a	-0.049174406
105	0xbda3114b	-0.07962283
106	0xbd9abdd8	-0.07555741
107	0xbdcd9fc9	-0.10040242
108	0x3daa859f	0.083262675
109	0x3db6102e	0.08889805
110	0xbd96c7a5	-0.07362298
111	0x3dc5de01	0.096614845
112	0xbce078b2	-0.027401302
113	0xbd111a59	-0.035425518
114	0xbd987b27	-0.074453644
115	0x3c099083	0.008396271
116	0xbda8b2aa	-0.082372025
117	0xbd933efa	-0.07189746
118	0xbdcf4d55	-0.10122172
119	0x3d5f44dc	0.05450903
120	0x3cf47c4e	0.02984443
121	0x3c64eb00	0.013972044
122	0xbddf7719	-0.10911388
123	0xbc7a5adc	-0.015280452
124	0x3c2b3c17	0.010451338
125	0x3d95ef03	0.073209785
126	0x3dcff133	0.10153427
127	0xbdcb9f87	-0.09942537
128	0xbca73bd9	-0.02041428
129	0x3b56635e	0.0032713036
130	0xbcafd636	-0.021464448
131	0xbd7983a3	-0.060916554
132	0x3d44f2f0	0.048083246
133	0x3d52a77d	0.05142926
134	0x3d9228b2	0.07136668
135	0xbcaa08ec	-0.020756207
136	0xbdbb8177	-0.09155553
137	0x3b931d95	0.0044896104
138	0xbd8032d7	-0.06259697
139	0x3db94f4b	0.09048327
140	0x3d7b40b7	0.061341014
141	0xbdb3ab3f	-0.08772897
142	0x3c8e7d59	0.017393755
143	0xbd987525	-0.074442185
144	0x3cd963b3	0.026536798
145	0xbb826e93	-0.0039804666
146	0xbb56b053	-0.0032758906
147	0xbcaeb753	-0.02132765
148	0xbd5f61a7	-0.054536488
149	0x3d9eb504	0.0774937
150	0xbd1a6010	-0.03768927
151	0x3d99537c	0.074866265
152	0xbd97b7e2	-0.0740812
153	0xbdcb6e79	-0.0993318
154	0xbc33b0eb	-0.0109674735
155	0x3cf05840	0.029338956
156	0x3dcf1135	0.10110704
157	0x3d60086e	0.05469554
158	0x3c23e845	0.010004108
159	0x3d9bbf9c	0.07604906
160	0x3d2334ae	0.03984516
161	0xbd1d24c6	-0.038365148
162	0xbd1b0e35	-0.037855346
163	0x3da257e6	0.079269215
164	0x3d85972e	0.06522976
165	0x3d4e9014	0.050430372
166	0xbdd670cc	-0.10470733
167	0xbd5c3cf8	-0.05376908
168	0xbd3575e6	-0.04430189
169	0xbd96a302	-0.0735531
170	0x3b9820b9	0.0046425727
171	0x3db8520e	0.09000026
172	0x3bf2a28a	0.00740463
173	0x3ae559b1	0.0017498044
174	0xbd8bf374	-0.068335444
175	0xbc3d2ae4	-0.01154587
176	0xbb69c5e6	-0.0035670935
177	0x3d1794b7	0.03700706
178	0xbd80745d	-0.062721945
179	0x3da9d638	0.08292812
180	0xbdbd7bde	-0.092521414
181	0x3d178b57	0.03699812
182	0xbd08e018	-0.033416837
183	0xbcf45ad1	-0.02982846
184	0x3d0383d6	0.03210815
185	0x3ce6cc80	0.028173685
186	0xbd0ae38a	-0.033908404
187	0xbc4abf04	-0.012374643
188	0x3c3c1f2b	0.01148204
189	0x3dc13a96	0.094350025
190	0xbc13e0a2	-0.009025725
191	0xbd4e6b1c	-0.050395116
192	0x3d29eb6c	0.04148428
193	0x3c8938c9	0.01675071
194	0xbd43b035	-0.047775466
195	0xbd6f6432	-0.058445163
196	0x3db2e437	0.08734935
197	0xbdbbeb08	-0.09175688
198	0x3d82669e	0.06367229
199	0xbc44df7d	-0.012016174
200	0x3d4cae5c	0.04997097
201	0xbd1a9681	-0.037741188
202	0xbd5550df	-0.052079078
203	0xbdb4630b	-0.088079534
204	0xbb1a142d	-0.002351056
205	0xbda23b8c	-0.07921514
206	0xbd1f652a	-0.038914837
207	0xbd3a0492	-0.045414515
208	0x3c213601	0.009839536
209	0xbc8d57a2	-0.0172537
210	0xbd1b8f93	-0.03797872
211	0xbc49276d	-0.012277466
212	0xbdbd4253	-0.09241166
213	0x3d822b64	0.06355932
214	0xbd9fedce	-0.078090295
215	0xbdaf311c	-0.08554289
216	0xbd37292f	-0.04471701
217	0xbd348c92	-0.04407937
218	0x3dc72464	0.09723738
219	0xbd97341f	-0.07382988
220	0x3d4756d5	0.048666794
221	0xbdbf44b4	-0.09339276
222	0x3c9daadf	0.019246517
223	0xbaa30cfa	-0.001243978
224	0x3dd3bf62	0.10339238
225	0x3d48b3a9	0.048999462
226	0x3d523b88	0.051326305
227	0x3d27b3a9	0.04094282
228	0xbc6573bc	-0.014004644
229	0x3c3927b9	0.0113009745
230	0xbd77b97d	-0.06047963
231	0x3db1c61e	0.08680366
232	0x3dcb80e1	0.09936691
233	0xbd44f013	-0.048080515
234	0xbca41319	-0.020028638
235	0xbd505590	-0.05086285
236	0xbdbb07d4	-0.091323525
237	0xbbb01623	-0.0053737327
238	0xbdb6d03d	-0.08926437
239	0x3d974856	0.07386844
240	0xbd65db29	-0.05611721
241	0x3ce59b75	0.02802823
242	0x3dbc11a6	0.09183054
243	0xbd0246e8	-0.031805903
244	0xbc19f9d8	-0.009397946
245	0x3d5eb026	0.054367207
246	0x3dc15884	0.09440711
247	0x3db3d08b	0.08780011
248	0x3da982fb	0.08276936
249	0x3c39771b	0.011319901
250	0xbd8c78c7	-0.06858974
251	0xbdd275dd	-0.10276387
252	0xbdb54a1e	-0.08852027
253	0x3c0d9058	0.008640371
254	0x3d4f3eb3	0.050596904
255	0xbc5a6e67	-0.013331986

bias f4 [10]
0	0xbd46e8fd	-0.04856204
1	0x3d73d801	0.05953217
2	0xbd8347ff	-0.064102165
3	0xbe1d218e	-0.15344831
4	0xbb99e76b	-0.0046967766
5	0xbd04c5c7	-0.032415178
6	0xbe121a49	-0.1426784
7	0xbb44076e	-0.0029911655
8	0xbdad8ead	-0.08474479
9	0xbe060388	-0.13087285

weight f4 [10, 10, 3, 3]
0	0xbbc26207	-0.005932096
1	0xbd97a119	-0.07403774
2	0xbc392914	-0.011301298
3	0x3b868d4b	0.004106199
4	0xbd01c83e	-0.031685106
5	0xbd3b0c13	-0.04566581
6	0xbdb79e52	-0.08965744
7	0xbd06d9ea	-0.032922663
8	0xbd43fcce	-0.047848515
9	0xbdaa73e1	-0.083228834
10	0xbdaf5b57	-0.085623436
11	0xbdc7bc2f	-0.0975269
12	0xbd2ac23a	-0.041689135
13	0x3d9e9118	0.07742518
14	0xbce925ff	-0.0284605
15	0xbc7d5e81	-0.015464426
16	0xbad47cff	-0.0016211568
17	0xbdb27cf9	-0.08715243
18	0x3d434eff	0.04768276
19	0xbd7b2605	-0.061315555
20	0x3d19bacb	0.037531655
21	0x3dcccfb1	0.100005515
22	0x3d44a544	0.048009172
23	0x3dc45c22	0.095878854
24	0xbbec5a57	-0.007212918
25	0x3cb0d35d	0.02158516
26	0x3d360e8c	0.044447467
27	0xbdc9c196	-0.09851377
28	0xbd88120f	-0.066440694
29	0x3c4d4334	0.0125282295
30	0x3b191d0d	0.0023363263
31	0xbd50d72f	-0.050986465
32	0xbda703ec	-0.08155045
33	0x3dcd3096	0.10019033
34	0x3dad31af	0.08456742
35	0x3d2cd56c	0.042195722
36	0x3d6c614b	0.057709973
37	0x3d4e6d45	0.050397176
38	0xbd0ba31d	-0.034091104
39	0xbdbe0e14	-0.09280029
40	0x3da5e7c9	0.0810085
41	0x3dc47579	0.09592719
42	0xbd73746e	-0.059437208
43	0xbda45f3a	-0.080259755
44	0xbd34a677	-0.044104066
45	0x3d5d2d5e	0.053998344
46	0xbd8fe6b4	-0.07026425
47	0xbc8c4748	-0.017123833
48	0x3d4eaf94	0.050460413
49	0xbc61d7a9	-0.013784328
50	0xbd56f97a	-0.052484013
51	0x3d642f1d	0.055708993
52	0x3a3817ea	0.00070226064
53	0x3d9c7194	0.07638851
54	0x3bb6fe83	0.0055845394
55	0x3d9d075d	0.0766742
56	0x3dd35042	0.10318042
57	0xbd25dbd2	-0.04049284
58	0xbd97ddb4	-0.074153334
59	0x3c42cef8	0.0118901655
60	0x3d494f91	0.049148146
61	0x3c4fa106	0.012672668
62	0xbd55c490	-0.05218941
63	0xbb7a5f3b	-0.0038203734
64	0x3dbd6ccf	0.09249269
65	0x3d97c1f8	0.074100435
66	0xbd88e871	-0.0668496
67	0xbd471eb0	-0.04861325
68	0x3ce057fc	0.027385704
69	0x3b6ef7a3	0.003646352
70	0xbd939648	-0.07206398
71	0x3cad6a57	0.02116887
72	0x3ca77362	0.020440761
73	0xbd70e641	-0.058813337
74	0xbd3db1de	-0.046312205
75	0x3d0962d3	0.03354151
76	0xbdb43de6	-0.08800869
77	0x3d125a39	0.035730574
78	0x3dba1588	0.09086138
79	0x3cfbc428	0.030733183
80	0xbcb9bc0c	-0.022672676
81	0x3d3c27d8	0.045936435
82	0xbd30ef2c	-0.043196842
83	0xbd009096	-0.031387888
84	0xbcde43e4	-0.027131982
85	0x3d865f76	0.065611765
86	0xbcae6c97	-0.021292014
87	0x3dc12165	0.094301976
88	0xbd0d0e9e	-0.03443777
89	0xbdbe2161	-0.0928371
90	0xbd2acc8e	-0.041698985
91	0x3df3630d	0.11884127
92	0x3c120b92	0.008913891
93	0xbca26014	-0.019821204
94	0xbd415c3b	-0.0472071
95	0x3d22cf6c	0.039748594
96	0xbd9fb443	-0.07798054
97	0xbd1017fc	-0.035179123
98	0x3d868fd8	0.06570405
99	0x3d480ad3	0.048838448
100	0xbd1e6472	-0.03867001
101	0x3d5ffacb	0.054682534
102	0xbd5823aa	-0.052768387
103	0xbd17f69c	-0.03710042
104	0x3dc6702c	0.09689364
105	0x3d13ce5a	0.036085464
106	0xbd3a0245	-0.04541232
107	0x3b905ad7	0.00440536
108	0x3d6231ea	0.055223383
109	0x3b84046c	0.0040288474
110	0xbcc58d3d	-0.0241152
111	0xbdcd8950	-0.10035956
112	0xbbab5e35	-0.005229736
113	0x3dc97f6c	0.09838757
114	0x3cff9c8a	0.031202573
115	0xbdd0299e	-0.10164188
116	0xbd4f4d90	-0.05061108
117	0x3dbcac01	0.09212495
118	0x3dcff154	0.101534516
119	0x3ca558ea	0.020184
120	0xbd0653ef	-0.03279489
121	0xbcdefe5a	-0.027220894
122	0x3d8c2a9f	0.06844067
123	0x3bb94b51	0.0056547304
124	0xbd84b871	-0.06480492
125	0xbd88322e	-0.06650196
126	0x3dee47b6	0.116347715
127	0xbd558715	-0.052130777
128	0xbcf2b469	-0.029627042
129	0x3d64d83c	0.05587028
130	0x3d97a64a	0.07404764
131	0xbd8158e3	-0.06315782
132	0xbccadaf6	-0.024762612
133	0xbda7ebb0	-0.08199251
134	0xbdab2da2	-0.08358313
135	0x3c2149b8	0.009844236
136	0xbd5f5177	-0.05452105
137	0x3d8e106c	0.06936726
138	0xbdbc1f37	-0.09185641
139	0xbb9f70cf	-0.0048657428
140	0x3d7cbace	0.06170159
141	0x3d0249d3	0.031808686
142	0x3c2d8085	0.0105897235
143	0xbd768ab9	-0.06019089
144	0x3beb213b	0.0071755922
145	0xbc69cc4c	-0.0142699
146	0x3c95a4d1	0.018267067
147	0x3dc34087	0.09533792
148	0x3d923ac7	0.07140117
149	0x3d534715	0.05158146
150	0xbd83d281	-0.06436635
151	0x39f4ce67	0.00046693088
152	0x3d2ebdbf	0.042661425
153	0x3d5d0f8c	0.053969905
154	0xbc8d9851	-0.017284544
155	0x3d0edc2c	0.03487794
156	0xbd3a3fe8	-0.045471102
157	0x3d879bd2	0.06621517
158	0xbd7366a2	-0.05942405
159	0xba0aebe8	-0.0005299435
160	0xbdb1d2d4	-0.086827904
161	0xbd473224	-0.048631802
162	0xbc2361c5	-0.009972041
163	0x3da30649	0.07960183
164	0x3cbf8012	0.023376498
165	0x3db81f83	0.089903854
166	0xbc45e167	-0.012077666
167	0x3d8ca6e4	0.06867769
168	0xbc219691	-0.009862558
169	0x3d33de60	0.043913245
170	0xbcfc49e6	-0.030796956
171	0x3c8dcc24	0.017309256
172	0xbd5e52bf	-0.05427813
173	0x3d2e111c	0.042496786
174	0x3d6ad961	0.057336215
175	0x3dc6cc13	0.09706893
176	0x3dbfd7f2	0.0936736
177	0x3d57a4c0	0.052647352
178	0x3dd98a26	0.10622053
179	0xbdba856d	-0.0910748
180	0x3cd427b8	0.025897846
181	0xbd2bfeab	-0.041990917
182	0xbcd39cbc	-0.025831573
183	0xbd209c79	-0.039211724
184	0x3de38270	0.11108863
185	0xbce19004	-0.027534492
186	0x3d3cc9eb	0.046091
187	0x3c2bdc92	0.0104896
188	0x3dc9cb68	0.0985325
189	0xbcb70e10	-0.022345573
190	0x3b599599	0.003320074
191	0xbd59198b	-0.053002875
192	0xbdb2f362	-0.08737828
193	0x3b75a166	0.0037480234
194	0x38b8bbb5	8.808767e-05
195	0xbdd0a88c	-0.10188398
196	0x3dafa94f	0.08577215
197	0x3d433dd4	0.047666386
198	0xbdac3fa9	-0.0841058
199	0x3db9137d	0.0903692
200	0xbd63f546	-0.055653833
201	0x3dbe9f37	0.093077116
202	0xbcede76c	-0.029041015
203	0xbd846e6a	-0.06466372
204	0x3c21afd9	0.0098685855
205	0xbdc501a9	-0.09619457
206	0xbc5c4279	-0.013443583
207	0xbb162252	-0.002290864
208	0xbd606e16	-0.054792486
209	0x3d98fc84	0.074700385
210	0xbdc05ffb	-0.09393307
211	0xbd07f2be	-0.03319048
212	0xbca42acd	-0.02003994
213	0xbd8c8a28	-0.06862289
214	0x3d58e991	0.05295712
215	0xbd4e9c83	-0.05044223
216	0xbcce82ae	-0.025208797
217	0x3dbfe22d	0.093693115
218	0x3d3402c8	0.043947965
219	0x3bee0564	0.007263826
220	0xbda444d1	-0.08020938
221	0xbc7ecb54	-0.015551407
222	0xbbd70e01	-0.0065629487
223	0xbdb9d2d3	-0.09073415
224	0x3c9e21d9	0.01930325
225	0xbd95b78d	-0.073104
226	0x3d5617c9	0.052268777
227	0xbdfa8328	-0.12232047
228	0x3dac80c5	0.08422998
229	0x3de03612	0.10947813
230	0x3d5deb50	0.05417949
231	0x3c2995f9	0.010350698
232	0x3df1ab96	0.118003055
233	0x3dd925f5	0.10602943
234	0x3c2af158	0.010433517
235	0xbd35ea54	-0.044412926
236	0xbd15dfa3	-0.03659023
237	0x3dc7891d	0.09742949
238	0xbc39e7f2	-0.011346804
239	0xbdd71d9c	-0.105036944
240	0x3d3700bd	0.04467844
241	0xbc5a98e4	-0.013342116
242	0x3d9ee074	0.07757655
243	0xbc0c14e4	-0.008549903
244	0x3dbfc789	0.0936423
245	0x3d80e18e	0.06293021
246	0xbd76cfc0	-0.06025672
247	0xbdaf3bfe	-0.085563645
248	0xbc8c5de7	-0.01713462
249	0xbdd79a42	-0.10527469
250	0x3dcaad8c	0.09896383
251	0xbd63d08a	-0.0556188
252	0x3c58173a	0.013189131
253	0x3c2d01af	0.010559483
254	0xbbee89dc	-0.0072796177
255	0x3d01fad1	0.031733338

bias f4 [10]
0	0xbcb7e7bc	-0.022449367
1	0xbd18f0e3	-0.037339102
2	0xbdcc5f77	-0.09979146
3	0x3ddc79f2	0.10765447
4	0xbd9a147b	-0.075234376
5	0x3d7b6bef	0.06138223
6	0xbdbb8f31	-0.09158171
7	0xbc919242	-0.017769936
8	0x3d767431	0.060169403
9	0xbe13d17b	-0.14435379

weight f4 [10, 10, 3, 3]
0	0xbd08c4c8	-0.03339079
1	0x3d5d0745	0.05396201
2	0x3d996aa1	0.07491041
3	0x3c48cab3	0.0122553585
4	0x3cebd473	0.028787827
5	0xbd589e19	-0.05288515
6	0x3d97ffa0	0.074218035
7	0x3cfa4be9	0.030553775
8	0xbcea6156	-0.028610867
9	0xbc6c65da	-0.01442858
10	0x3dbe3c96	0.092888996
11	0x3de51a3b	0.11186644
12	0x3dcf16f3	0.10111799
13	0x3da3ec08	0.08004004
14	0x3c4eea6d	0.012629134
15	0xbd0537f8	-0.03252408
16	0xbdbeca47	-0.09315925
17	0xbd1f7f48	-0.038939744
18	0xbc0eda96	-0.008719107
19	0x3c8b7e4e	0.017028
20	0xbc866be0	-0.01640886
21	0xbc002ed1	-0.007823662
22	0x3cd027d4	0.025409617
23	0xbdbea2c1	-0.093083866
24	0xbdcfce50	-0.10146773
25	0xbd1a2620	-0.037634015
26	0xbd39c970	-0.04535812
27	0x3d1c4e02	0.03816033
28	0x3db6119c	0.088900775
29	0x3c3f1619	0.011662983
30	0xbd94b596	-0.07261197
31	0x3cc682bb	0.024232259
32	0x3dc3b695	0.09556309
33	0x3d2c1c3f	0.042019125
34	0xbd09f83e	-0.033684008
35	0x3d2a0e9a	0.04151783
36	0x3c7206ea	0.014772156
37	0x3dcb629d	0.09930918
38	0x3dfd7113	0.12375083
39	0x3ce47d71	0.027891846
40	0x3e0dcef3	0.13848476
41	0x3dfec3ca	0.124396876
42	0xbccefa52	-0.025265846
43	0x3bc29c7c	0.0059390645
44	0x3deadaf4	0.11467543
45	0xbd00a73d	-0.03140949
46	0xbd033b35	-0.032038886
47	0xbc922090	-0.017837793
48	0x3d8d86ee	0.069105014
49	0x3d594ac3	0.053049814
50	0xbd871868	-0.06596452
51	0x3da55e18	0.080745876
52	0x3d20ddaa	0.039273895
53	0x3d5ebceb	0.054379385
54	0x3dcf90f2	0.10135068
55	0x3dd382e5	0.103277005
56	0xbc1364de	-0.008996217
57	0x3d9f8428	0.07788879
58	0x3d069764	0.03285922
59	0x3ce2d338	0.027688608
60	0x3d4dfe91	0.0502916
61	0x3d5f2a55	0.05448373
62	0xbcfde88e	-0.03099468
63	0x3dd61ea4	0.10455063
64	0x3c048379	0.008087986
65	0x3da5c8c4	0.08094934
66	0xbd425699	-0.047445867
67	0xbdb30156	-0.08740489
68	0x3d760209	0.060060535
69	0x3d3ae32e	0.04562681
70	0xbd9d2fc7	-0.076751284
71	0x3d893b89	0.067008086
72	0x3dab55fa	0.08366008
73	0x3ddf9511	0.10917104
74	0x3d1cda3a	0.038294055
75	0xbbea6c20	-0.007154003
76	0x3d840844	0.06446889
77	0x3ddd1770	0.10795486
78	0xbd98bcd4	-0.07457891
79	0x3d56b137	0.0524151
80	0xba5181e6	-0.00079920737
81	0xbdd31dc4	-0.10308412
82	0x3c8f89df	0.017521797
83	0x3e577bf4	0.21043378
84	0x3dcd1034	0.10012856
85	0x3dcd89ca	0.10036047
86	0x3e49630a	0.19666687
87	0xbdde5a09	-0.108570166
88	0x3e102ede	0.14080378
89	0x3d3a6ce2	0.045513995
90	0xbd4c8339	-0.04992983
91	0x3db09552	0.086222306
92	0x3d86845f	0.065682165
93	0x3c230cb1	0.009951756
94	0x3d24f192	0.040269442
95	0xbcc2a8c3	-0.023762112
96	0xbd8bd875	-0.06828395
97	0x3dad3b74	0.084586054
98	0xbd567931	-0.05236167
99	0x3ccea778	0.02522634
100	0xbda867d9	-0.08222932
101	0xbdba124f	-0.09085523
102	0x3d990021	0.07470728
103	0xbd728ddb	-0.059217315
104	0xbcf4f747	-0.029903067
105	0xbd842cae	-0.064538345
106	0x3d2dae69	0.04240266
107	0xbd54806c	-0.051880285
108	0x3d95cf32	0.0731491
109	0x3d95263f	0.072826855
110	0xbc9d7a4b	-0.019223353
111	0x3d698853	0.057014775
112	0x3d417f63	0.047240626
113	0x3dc49420	0.09598565
114	0x3d29d4fd	0.041462887
115	0x3d934a4c	0.071919054
116	0x3dae8ca8	0.08522922
117	0xba98f988	-0.0011671046
118	0x3d2b9bb5	0.04189654
119	0xbd93eddb	-0.07223102
120	0x3ce91739	0.028453456
121	0xbdc9d85e	-0.09855722
122	0x3d902207	0.0703774
123	0x3c21a527	0.009866036
124	0x3dbcfc41	0.09227801
125	0xbbe0d2d8	-0.006861072
126	0xbdca2819	-0.09870929
127	0xbd6f95be	-0.058492415
128	0x3dc72c6f	0.09725272
129	0x3d3c16ab	0.045920055
130	0x3d88255f	0.06647753
131	0xbd31fb00	-0.043452263
132	0xbd0df5f7	-0.0346584
133	0x3b106b0d	0.0022036463
134	0xbabb09ae	-0.0014269853
135	0x3c4deb18	0.012568258
136	0x3d566f5b	0.05235229
137	0xbc26c88a	-0.010179648
138	0xbda33af9	-0.079702325
139	0x3ccf0f00	0.025275707
140	0x3c4180b1	0.011810468
141	0xbd9ea7f8	-0.07746881
142	0x3d317299	0.04332218
143	0xbdc36d28	-0.09542304
144	0x3c8e6f20	0.017386973
145	0xbd9cc956	-0.07655589
146	0xbd66f87e	-0.056389324
147	0xbcce536a	-0.02518626
148	0xba626ef7	-0.0008637751
149	0x3dc86773	0.097853564
150	0x3d17f944	0.037102953
151	0x3d52afa6	0.051437043
152	0xbd21ca95	-0.039499838
153	0xbbe76ef9	-0.0070627895
154	0xbd245917	-0.040124025
155	0x3d9ca1f7	0.0764808
156	0xbd51cbe2	-0.05121983
157	0x3d26cdb4	0.040723518
158	0x3d18ab3a	0.03727267
159	0xbd97c2e0	-0.07410216
160	0x3dc4fc8a	0.096184805
161	0x3ceffb6a	0.029294688
162	0x3bc7f046	0.006101641
163	0x3dcef9e4	0.101062566
164	0x3c7412b3	0.014897036
165	0xbd02d865	-0.03194465
166	0xbdc1205c	-0.0943
167	0x3dbf89d3	0.0935246
168	0xbca151de	-0.019692358
169	0x3d8b3110	0.06796467
170	0xbd54bd59	-0.05193839
171	0x3dc3f38e	0.09567939
172	0x3cd8950d	0.02643826
173	0xbd8fd6e3	-0.07023408
174	0xbd2233ff	-0.03960037
175	0xbdbc32c4	-0.0918937
176	0x3cf2d7d5	0.029643932
177	0x3d557137	0.052109923
178	0xbdbe87b3	-0.09303226
179	0xbd60dec3	-0.054899942
180	0x3ab5812e	0.0013847703
181	0xbddbb74c	-0.107283205
182	0xbdd405b2	-0.10352649
183	0xbd4dff76	-0.050292455
184	0x3b513009	0.00319195
185	0xbcf05190	-0.029335767
186	0xbd84812e	-0.064699516
187	0x3da9f88f	0.08299362
188	0xbd8820f1	-0.06646908
189	0x3dc61da5	0.09673623
190	0x3c2c018a	0.010498414
191	0xbc8aa763	-0.01692552
192	0x3ce247da	0.027622152
193	0x3d90b95b	0.07066604
194	0xbd744bcc	-0.059642598
195	0x3d96c8f3	0.07362547
196	0xbdbf0730	-0.09327543
197	0xbd3c4ad4	-0.0459698
198	0xbdb0d5c7	-0.08634525
199	0x3de34130	0.11096418
200	0x3c440ccc	0.011965942
201	0xbda91f62	-0.08257939
202	0x3d4473eb	0.04796211
203	0x3d28f037	0.04124471
204	0x3db513f6	0.08841698
205	0xbda4f466	-0.08054428
206	0xbd43926f	-0.04774707
207	0xbdc79bbc	-0.09746501
208	0x3da181ef	0.07886111
209	0x3d862681	0.06550313
210	0x3d6eb2b2	0.058275886
211	0xbd9742f9	-0.07385821
212	0xbd58060f	-0.052740153
213	0xbdc8d14d	-0.09805546
214	0x3dac9313	0.0842649
215	0xbdd68b7d	-0.10475824
216	0xbc5a9399	-0.013340854
217	0x3d46a14f	0.04849368
218	0xbd34f341	-0.044177298
219	0x3cc8e806	0.0245247
220	0x3db53ee0	0.08849883
221	0xbd2a926b	-0.04164354
222	0x3b59a413	0.0033209368
223	0xbd26d6cc	-0.04073219
224	0x3c4099ea	0.011755446
225	0xbc410ed4	-0.01178332
226	0x3db9caab	0.09071859
227	0x3d5b2be0	0.05350864
228	0xbdc76df1	-0.097377665
229	0xbda02b74	-0.07820788
230	0xbd4a5035	-0.049392898
231	0xbc9cff39	-0.019164668
232	0xbd85e8fe	-0.0653858
233	0x3d96a56f	0.07355773
234	0xbd84b1ee	-0.0647925
235	0x3dd14d46	0.10219817
236	0xbda2eeb0	-0.07955682
237	0x3ac08af1	0.0014689845
238	0x3dd34c7b	0.10317322
239	0xbdadce10	-0.08486569
240	0x3d470336	0.048587047
241	0x3ce22544	0.02760566
242	0xbdd1d372	-0.10245408
243	0xbd120d4c	-0.035657212
244	0xbcbfd911	-0.023418935
245	0x3a7b7663	0.0009592531
246	0x3da9963a	0.082806066
247	0x3de5a652	0.11213364
248	0x3db7f275	0.08981792
249	0xbda049c0	-0.07826567
250	0xbd833ed1	-0.06408466
251	0x3d53da41	0.051721815
252	0x3d780816	0.060554586
253	0x3d91191f	0.070848696
254	0xbdbdafb9	-0.09262032
255	0xbc969f03	-0.01838637

bias f4 [10]
0	0xbd590210	-0.052980483
1	0x3da2cabd	0.079488255
2	0xbdb54c1c	-0.08852407
3	0x39afcee1	0.00033532738
4	0xbcb1e501	-0.021715643
5	0x3d9b6a35	0.07588617
6	0xbd7c9b4c	-0.06167154
7	0xbdd79a18	-0.10527438
8	0xbd6a1282	-0.057146557
9	0xbcc7dbf2	-0.02439687

weight f4 [10, 10, 3, 3]
0	0xbd10dc62	-0.035366423
1	0x3d5f3158	0.054490417
2	0x3dc6b093	0.097016476
3	0xbc80545a	-0.015665222
4	0x3d0e829f	0.03479254
5	0xbc069a35	-0.008215477
6	0x3ddbfe3f	0.10741853
7	0xbd0b91a8	-0.034074455
8	0xbdf7656c	-0.120798916
9	0x3dc6d49a	0.09708519
10	0xbdad01b7	-0.08447593
11	0xbd918274	-0.0710496
12	0xbd81552c	-0.06315073
13	0xbda397e8	-0.07987958
14	0x3cbf7e3a	0.02337562
15	0x3d796830	0.060890377
16	0x3d8d9367	0.069128804
17	0xbd090248	-0.03344944
18	0xbdde2875	-0.1084756
19	0x3db21f17	0.08697336
20	0x3d771ada	0.060328342
21	0x3b434213	0.0029794022
22	0xbd847f8c	-0.0646964
23	0x3b775e7c	0.0037745526
24	0xbb7d28b5	-0.0038629
25	0xbc7e9659	-0.015538775
26	0xbcc8eb86	-0.024526369
27	0xbd4fab6d	-0.050700594
28	0xbc9ee42e	-0.019395914
29	0xbd859213	-0.06522002
30	0x3d92159e	0.071330294
31	0xbdd8e257	-0.10590046
32	0xbdc1743e	-0.094459996
33	0xbdc0ea63	-0.09419706
34	0xbc4f355f	-0.012647002
35	0x3dc35bec	0.09539017
36	0xbe1d6323	-0.15369849
37	0x3dccd984	0.10002425
38	0x3e15fa81	0.14646341
39	0x3c72a14c	0.014808964
40	0x3dd7543b	0.105141126
41	0xbca064f3	-0.019579386
42	0x3d07f758	0.03319487
43	0xbd3a6e3e	-0.04551529
44	0xbe2d42cd	-0.16920014
45	0x3c1cb2fe	0.009564159
46	0xbcedcb8c	-0.029027723
47	0xbc562b30	-0.01307182
48	0x3db3c60d	0.087780096
49	0x3c42aea3	0.011882457
50	0xbda7a857	-0.08186405
51	0x3d8dfe92	0.06933321
52	0xbd9f2645	-0.07770971
53	0x3d3c5d6e	0.04598754
54	0xbded015c	-0.11572525
55	0x3e4521ea	0.19251218
56	0x3e6a9c51	0.22911192
57	0x3c91fa13	0.01781944
58	0xbd889959	-0.06669874
59	0xbc6a3d05	-0.014296775
60	0x3dce2dd2	0.10067333
61	0xbd8d077c	-0.06886193
62	0xbe87fa43	-0.26558122
63	0x3aa38156	0.0012474458
64	0x3e0da00a	0.13830581
65	0x3e18581e	0.14877364
66	0x3ce2f51b	0.027704766
67	0x3d180d9a	0.037122346
68	0xbdcb2c5a	-0.09920569
69	0x3db4b1ef	0.08823001
70	0xbdf4daf5	-0.11955825
71	0xbe8707cc	-0.26373136
72	0x3dd0fbac	0.102042526
73	0x3cbbcbd2	0.022924338
74	0xbd731530	-0.059346378
75	0x3d052139	0.032502387
76	0x3d8b1625	0.06791333
77	0x3d5d9f64	0.054107085
78	0x3c40ec8c	0.011775147
79	0x3d981669	0.074261494
80	0xbd13d886	-0.036095165
81	0xbdbeedd0	-0.09322703
82	0xbcf95146	-0.030434262
83	0xbcf12483	-0.029436355
84	0xbd8eb836	-0.06968729
85	0x3e0294e4	0.1275211
86	0x3dc9fe55	0.09862963
87	0xbda56cd0	-0.08077395
88	0x3d385f19	0.045012567
89	0xbd4a96dd	-0.04946028
90	0x3d792be2	0.060832866
91	0x3c9295dc	0.017893724
92	0xbe323a7a	-0.1740512
93	0x3e801fcd	0.25024262
94	0x3e742e3c	0.23845762
95	0xbde9a729	-0.114088364
96	0x3beb962e	0.0071895337
97	0xbd6f1ef1	-0.058379117
98	0xbe423b59	-0.18967952
99	0x3b1d42ef	0.0023996194
100	0xbd75a9f9	-0.05997655
101	0x3d9b76b2	0.07590999
102	0x3c791c6b	0.015204529
103	0xbdcd123e	-0.10013245
104	0x3d27ede8	0.04099837
105	0xbc616e70	-0.0137592405
106	0x3c8cdf17	0.017196221
107	0xba84e9d1	-0.0010140484
108	0x3bad8d7c	0.0052964073
109	0x3cdf02ff	0.027223108
110	0xbc981dd9	-0.01856892
111	0x3c17e6b8	0.009271316
112	0x3e299721	0.16561557
113	0x3dfa8b67	0.1223362
114	0xbd96ec8d	-0.07369337
115	0xbd54d3a5	-0.051959652
116	0x3d5134ed	0.051075865
117	0xbcb078a3	-0.0215419
118	0xbc2262dc	-0.009911265
119	0xbdb8d5fc	-0.09025189
120	0xbccf7ca8	-0.025327995
121	0xbd964c7f	-0.07338809
122	0xbc8c5fc0	-0.0171355
123	0x3c9db26a	0.019250114
124	0xbdf7c043	-0.12097218
125	0xbd5133b7	-0.05107471
126	0xbd20e62d	-0.039282013
127	0x3d66c734	0.05634232
128	0x3d36829b	0.04455815
129	0x3d6fe649	0.058569226
130	0x3e9492fb	0.29018387
131	0x3e072e43	0.13201241
132	0xbe41b0c5	-0.18915088
133	0x3dd04816	0.10169999
134	0xbdfc8abc	-0.12331149
135	0xbdd085aa	-0.101817444
136	0x3d977efb	0.073972665
137	0xbdc20b52	-0.094748154
138	0x3d724e2a	0.059156574
139	0xbdae2361	-0.08502842
140	0xbd2da79b	-0.04239617
141	0xbd7b4b9c	-0.061351404
142	0xbd59e763	-0.053199183
143	0x3cc1c308	0.023652568
144	0xbe21d807	-0.15805064
145	0x3d305831	0.043052856
146	0xbdb82a7f	-0.089924805
147	0x3e237e68	0.15966189
148	0x3ebb29ca	0.3655532
149	0x3c8f5e6d	0.01750108
150	0xbd2b3cc2	-0.04180599
151	0x3dcc81cc	0.09985694
152	0xbe1cc41d	-0.15309186
153	0xbc80c698	-0.015719697
154	0x3ca175cc	0.01970949
155	0xbe659dd0	-0.22423482
156	0x3df13419	0.11777515
157	0x3ebc1fee	0.3674311
158	0x3becf4b7	0.0072313207
159	0x3bbe131d	0.0058006183
160	0xbd76b8a4	-0.06023468
161	0xbe7f1265	-0.2490936
162	0xbdc80113	-0.0976583
163	0x3daa8cee	0.083276615
164	0xbdb11b5a	-0.08647795
165	0x3d71b674	0.05901189
166	0x3cba9a70	0.02277872
167	0xbd7919e1	-0.060815696
168	0x3ce8b202	0.028405193
169	0xbd232d47	-0.0398381
170	0xbdb5c41e	-0.08875297
171	0xbe3b884d	-0.18313713
172	0xbe2ac469	-0.16676487
173	0xbca7b2bc	-0.02047097
174	0x3d207aaa	0.03917948
175	0x3dd1a608	0.10236746
176	0x3dd2176e	0.10258375
177	0xbd9eb55f	-0.077494375
178	0x3e2aa57e	0.16664693
179	0x3be68765	0.0070351833
180	0x3dac3ab2	0.08409633
181	0xbd8aa442	-0.06769611
182	0xbc8209b3	-0.015873766
183	0xbd315fbd	-0.043304194
184	0x3d81458d	0.06312094
185	0x3e029226	0.12751064
186	0xbc8993ef	-0.016794173
187	0x3b11cd45	0.0022247594
188	0x3dcb4133	0.09924545
189	0x3dbd8a31	0.092548735
190	0x3d120e32	0.03565807
191	0xbbfef175	-0.0077802488
192	0xbce2e9da	-0.0276994
193	0x3da8ace0	0.08236098
194	0xbdb00adc	-0.08595821
195	0xbda9ef1d	-0.0829756
196	0xbb904148	-0.0044023134
197	0xbda672d0	-0.081273675
198	0x3b119479	0.002221374
199	0x3d8a3073	0.06747522
200	0xbd986642	-0.07441379
201	0xbdd1309b	-0.10214349
202	0xbdcb2a39	-0.09920163
203	0xbd68160b	-0.056661647
204	0xbdd563bd	-0.10419414
205	0xbdecc489	-0.115609236
206	0x3db43e7d	0.08800981
207	0x3da64f6b	0.081206165
208	0x3cdcc8ab	0.026951155
209	0x3b558413	0.0032579943
210	0x3d66c286	0.056337856
211	0x3d31a172	0.043366857
212	0xbd8483e7	-0.06470471
213	0x3c3809a3	0.011232766
214	0xbd44a310	-0.04800707
215	0x3dce2c84	0.100670844
216	0x3ce2393c	0.027615182
217	0x3da8aa3b	0.08235594
218	0xbcc94c5e	-0.024572548
219	0xbd565ea0	-0.052336335
220	0xbe1af6cf	-0.15133213
221	0x3dd52a3b	0.104084454
222	0x3e10823b	0.14112179
223	0xbd31cabb	-0.04340623
224	0x3d58be13	0.052915644
225	0xbd4538f9	-0.048150036
226	0xbd5d047b	-0.05395935
227	0xbd0af426	-0.033924244
228	0x3d788f09	0.060683284
229	0xbda148fc	-0.07875249
230	0xbd52104c	-0.051285073
231	0x3d63fa27	0.055658486
232	0xbc5abd74	-0.013350833
233	0xbc4d098f	-0.012514486
234	0x3e289509	0.16463102
235	0xbdadcfc5	-0.084868945
236	0xbd5547aa	-0.052070297
237	0x3dc7659f	0.097361796
238	0x3cd4f97f	0.025997875
239	0x3d0dff9d	0.0346676
240	0x3d05e0ee	0.032685213
241	0xbe21c927	-0.1579939
242	0xbd8aa9c3	-0.06770661
243	0x3e2f1067	0.17096101
244	0xbd86aebd	-0.065762974
245	0x3d9679c0	0.07347441
246	0xbd0e0478	-0.03467223
247	0xbe190956	-0.14944968
248	0x3d976227	0.07391768
249	0x3df63af6	0.12022965
250	0xbe2a690a	-0.16641632
251	0xbde3474c	-0.11097583
252	0x3dc03c78	0.093865335
253	0x3cbf3a84	0.023343332
254	0xbd2c50b9	-0.04206917
255	0xbdc6d055	-0.09707705

bias f4 [10]
0	0x3d775870	0.060387075
1	0xbe1981b8	-0.1499089
2	0x3df7223d	0.12067077
3	0xbd4421f7	-0.047883954
4	0x3c67bc4c	0.014144015
5	0x3d86604a	0.065613344
6	0x3d48c810	0.04901892
7	0xbd0a0aff	-0.033701893
8	0x3dc54a93	0.096333645
9	0xbd1622ad	-0.036654163

weight f4 [10, 10, 3, 3]
0	0x3d97b70a	0.07407959
1	0xbc952219	-0.018204736
2	0xbbed6379	-0.007244524
3	0x3ca37bdb	0.01995652
4	0xbd00bc27	-0.031429436
5	0x3d9c106c	0.0762032
6	0x3d2431ab	0.04008643
7	0xbe326274	-0.1742037
8	0xbdf7ec9d	-0.12105677
9	0x3de8c7cb	0.113662325
10	0x3e5f91c5	0.2183295
11	0x3e150859	0.14553966
12	0xbcfdee75	-0.030997494
13	0xbd976199	-0.07391662
14	0x3d29d8df	0.04146659
15	0xbe075d61	-0.13219215
16	0xbe32e5b4	-0.17470437
17	0xbd0fbb69	-0.035090838
18	0xbdd32340	-0.10309458
19	0x3d542120	0.051789403
20	0xbc256bae	-0.010096474
21	0xbde524ac	-0.11188635
22	0x3c6e6a78	0.014551751
23	0x3d8a1e42	0.067440525
24	0x3ddf8e2a	0.109157875
25	0xbdc210d8	-0.09475869
26	0xbd9eb65d	-0.07749627
27	0xbd6cd408	-0.057819396
28	0x3d6d31b9	0.057908747
29	0xbdc38396	-0.095465824
30	0x3d36b43d	0.044605482
31	0xbd697bd8	-0.057002872
32	0x3d70d1cd	0.05879383
33	0xbdb7a7f3	-0.08967581
34	0x3d9a41da	0.075320914
35	0xbdd7c745	-0.105360545
36	0xbc6ffbda	-0.014647448
37	0xbdb4b75e	-0.08824037
38	0x3dd804a0	0.10547757
39	0xbddaa9ac	-0.106768936
40	0xbc7f845c	-0.015595522
41	0x3d8c2cbc	0.0684447
42	0x3d6b6e6c	0.057478353
43	0xbcca11dc	-0.02466672
44	0x3c39c609	0.011338719
45	0xbd0650f2	-0.03279204
46	0xbc14f671	-0.009091959
47	0xbdb0fa01	-0.086414345
48	0xbc492634	-0.012277175
49	0xbdb9b874	-0.09068385
50	0xbc7e2af7	-0.015513173
51	0xbcb955f7	-0.022623999
52	0x3dba6d0a	0.09102829
53	0x3d2f41c4	0.04278733
54	0xbd714189	-0.05890039
55	0x3deeedbb	0.11666437
56	0xbd3b5979	-0.045739625
57	0xbd6080f6	-0.054810487
58	0xbc97226d	-0.018449033
59	0xbd75f933	-0.060052108
60	0x3d059dee	0.032621317
61	0xbe11e1b8	-0.14246261
62	0xbe367573	-0.17818241
63	0x3c45eb62	0.012080045
64	0x3dc39ebd	0.09551761
65	0xbc2e8657	-0.010652146
66	0x3d6300e9	0.05542079
67	0xbda2e8d6	-0.07954566
68	0xbe1ebe78	-0.15502346
69	0x3d10e042	0.03537012
70	0x3d32e66a	0.04367677
71	0x3ccb60dd	0.024826461
72	0xbdb05545	-0.08610014
73	0x3cf4f24b	0.02990069
74	0xbd2a8129	-0.041627083
75	0xbd4b52b0	-0.049639404
76	0x3d4ae8fa	0.04953859
77	0x3de3cb36	0.11122744
78	0xbd199a86	-0.03750088
79	0xbd083f24	-0.03326334
80	0xbd6e900a	-0.058242835
81	0xbd0d1da6	-0.034452103
82	0xbd322615	-0.04349335
83	0xbcbaa9c8	-0.022786036
84	0xbd2f1b76	-0.0427508
85	0x3d9d579f	0.07682728
86	0x3d7619b5	0.06008311
87	0xbcbfe16a	-0.023422915
88	0xbd23c2b8	-0.03998062
89	0x3d9bedbe	0.07613705
90	0x3db04ed4	0.08608785
91	0xbcea5f84	-0.028609999
92	0x3d99daee	0.07512461
93	0xbd2683da	-0.040653087
94	0x3cdde125	0.027084896
95	0x3d1e7597	0.03868636
96	0xbd19014e	-0.03735476
97	0xbdc7f550	-0.097635865
98	0xbdbe7e9e	-0.09301494
99	0xbdc46ce5	-0.095910825
100	0x3d0739d1	0.033014122
101	0x3b140a48	0.0022589136
102	0xbdf63dab	-0.12023481
103	0xbe24937c	-0.16071886
104	0xbd9f1d78	-0.077692926
105	0x3c3adcaa	0.0114051495
106	0x3d4ecff9	0.050491307
107	0xbdf15662	-0.11784054
108	0x3d74c9cd	0.059762765
109	0xbdad96ad	-0.08476005
110	0xbda2c34f	-0.079474084
111	0xbd629cae	-0.055325203
112	0xbd4d199c	-0.05007325
113	0xbcbbb079	-0.022911297
114	0xbd964535	-0.07337419
115	0xbd2b3d0d	-0.04180627
116	0xbdad0422	-0.08448054
117	0xbc135bfc	-0.008994099
118	0xbc274c52	-0.010211067
119	0xbd09d7fc	-0.033653244
120	0xbd6e065c	-0.058111534
121	0xbdb054a7	-0.08609896
122	0xbdce7b96	-0.10082166
123	0xbd876154	-0.06610361
124	0x39117064	0.00013870146
125	0xbc134ab5	-0.0089899795
126	0x3df524da	0.119699195
127	0x3e1ae6be	0.15127084
128	0xbcdff6c6	-0.02733935
129	0x3db17fa9	0.08666927
130	0xbce0b379	-0.02742933
131	0x3d81fa1a	0.06346531
132	0x3c86ce39	0.016455757
133	0xbc448e25	-0.0119967805
134	0xbdb7fe21	-0.08984018
135	0x3e005b2e	0.12534782
136	0xbcf34c99	-0.02969961
137	0xbc8712ce	-0.016488459
138	0x3c6be3b2	0.0143975485
139	0xbdc2cd7f	-0.095118515
140	0x3c02bd9f	0.0079797795
141	0xbd1f60eb	-0.038910788
142	0x3d1ed9ff	0.038782116
143	0xbdc05cee	-0.09392725
144	0x3dab1d40	0.08355188
145	0xbc7fe5b9	-0.015618735
146	0x3dc626d2	0.09675373
147	0xbd79be9d	-0.0609728
148	0xbe091c9e	-0.13389823
149	0x3d9481e0	0.07251334
150	0x3d5bd6a0	0.05367148
151	0xbd9bf07a	-0.07614227
152	0x3cd5a1a6	0.026078057
153	0x3d8b1131	0.067903884
154	0xbcf582d8	-0.029969618
155	0xbc7a7700	-0.015287161
156	0xbda2d060	-0.079499006
157	0xbd029b2f	-0.031886276
158	0xbdf0946a	-0.11747058
159	0xbd064aac	-0.032786056
160	0xbd43d167	-0.047807124
161	0xbd736af1	-0.05942816
162	0x3db32d9e	0.08748935
163	0x3db1118f	0.08645927
164	0xb908b69e	-0.00013038001
165	0x3d657ed8	0.05602917
166	0x3d245e63	0.040129077
167	0x3c96e644	0.018420346
168	0xbdeaa468	-0.11457139
169	0xbd4f67b8	-0.050636023
170	0x3cadfb08	0.021237865
171	0xbd7b06c1	-0.061285738
172	0xbdb548d1	-0.08851779
173	0x3d22a0f6	0.039704286
174	0xbd8e9e09	-0.069637366
175	0xbd5e62bb	-0.054293375
176	0xbc8f6a0d	-0.017506624
177	0xbdd6b1b4	-0.10483113
178	0x3c984035	0.018585304
179	0x3bedbfa3	0.007255511
180	0x3d0d4d72	0.034497686
181	0xbd87e3a4	-0.06635216
182	0xbd7e83f5	-0.062137563
183	0x3d49979f	0.049216863
184	0xbdd5fcf5	-0.10448638
185	0xbe0ebbe7	-0.13938867
186	0x3e347990	0.17624497
187	0x3db09861	0.08622814
188	0xbcd8cd92	-0.026465211
189	0x3e0c0140	0.13672352
190	0x3d09f941	0.033684973
191	0xbe0153be	-0.12629601
192	0xbcfd6578	-0.030932173
193	0xbd03a131	-0.032136146
194	0x3e2c6dfc	0.1683883
195	0xbdb3be0a	-0.087764814
196	0xbdad6834	-0.08467141
197	0xbd5fe0d2	-0.054657765
198	0xbd01a9e1	-0.03165615
199	0x3bff27c6	0.007786724
200	0xbd35114c	-0.04420595
201	0x3b6fd217	0.003659373
202	0x3d285caa	0.041103996
203	0xbd871b65	-0.06597022
204	0xbcd61e2e	-0.026137438
205	0x3dfb3e14	0.122677
206	0xbd55993e	-0.052148096
207	0x3c8e1637	0.017344577
208	0x3ce23120	0.027611315
209	0x3da9665d	0.08271477
210	0x3b4da244	0.0031377235
211	0x3ca417cf	0.020030884
212	0xbd11b205	-0.035570163
213	0x3d0e733d	0.03477787
214	0xbd5815dc	-0.05275522
215	0xbdd5414b	-0.10412844
216	0xbd90c4e2	-0.070688024
217	0xbd504b0e	-0.050852828
218	0x3d1eda04	0.038782135
219	0xbdb3686c	-0.08760151
220	0xbac63ed2	-0.0015124923
221	0x3c77f58b	0.015134226
222	0x3bfcfed6	0.0077208085
223	0x3d82dc2c	0.06389651
224	0x3dc25878	0.0948953
225	0x3b275d0d	0.002553764
226	0xbdc3cd8c	-0.09560689
227	0xbde2e2c5	-0.11078409
228	0xbd98838d	-0.07446966
229	0xba57c4cd	-0.0008230925
230	0x3b929cf3	0.004474276
231	0x3c837a38	0.01604949
232	0xbdaee288	-0.08539301
233	0x3df87f0c	0.12133607
234	0x3db34b55	0.08754603
235	0xbdc1bc0d	-0.09459696
236	0xbd356988	-0.044290096
237	0x3de17649	0.11008889
238	0x3deee141	0.116640575
239	0x3d556548	0.052098542
240	0x3cd450d3	0.025917446
241	0x3aa43e20	0.0012530722
242	0xbe11c0aa	-0.14233652
243	0xbdd0cece	-0.10195695
244	0x3d83262a	0.064037636
245	0x3dbc2aba	0.09187837
246	0xbdec3f43	-0.11535504
247	0xbdabb75c	-0.083845824
248	0xbd3ea038	-0.046539515
249	0xbbdedcaf	-0.00680121
250	0x3d615a09	0.055017505
251	0xbe384132	-0.1799362
252	0xbcc24063	-0.023712343
253	0xbdf2dc3c	-0.118584126
254	0xbdad7e8e	-0.08471404
255	0xbd2984ee	-0.041386537

bias f4 [10]
0	0xbdffbc84	-0.124871284
1	0xbb07f80c	-0.0020747213
2	0xbdc1fedb	-0.09472438
3	0xbcce75ce	-0.025202658
4	0xbcc5e4b3	-0.024156904
5	0x3cd8da1c	0.02647119
6	0xbcf60e41	-0.030036094
7	0x3bbe3bbf	0.005805462
8	0x3d5e0fc1	0.054214243
9	0xbe03ee17	-0.12883793

weight f4 [8, 2400]
0	0xbbeb73ae	-0.007185421
1	0x3c0475a9	0.008084693
2	0x3cb82bc2	0.022481803
3	0x3b8416b2	0.004031026
4	0x3b70adb4	0.003672463
5	0xb8443dc5	-4.678757e-05
6	0x3bac7810	0.005263336
7	0xbcf720bd	-0.030166978
8	0xbcd3def6	-0.025863152
9	0x3baf93bd	0.005358188
10	0xbd2cca03	-0.04218484
11	0x3d4f7514	0.050648764
12	0x3c8db0e8	0.01729627
13	0x3b3b0e90	0.0028542615
14	0xbbefa147	-0.007312927
15	0x3d085405	0.033283252
16	0x3d085caa	0.033291496
17	0x3c869723	0.01642949
18	0xbc6bfa60	-0.014402956
19	0xbc9b6a18	-0.018971488
20	0x3c8ccae6	0.017186593
21	0x3ca58aee	0.020207848
22	0xbc8ace51	-0.016944082
23	0x3a809a43	0.0009811599
24	0xbc4c96b1	-0.0124870995
25	0x3c8f92de	0.017526086
26	0x3b62d681	0.0034612718
27	0xbc01eda2	-0.007930191
28	0xbca1b030	-0.019737333
29	0xbbb89779	-0.0056332913
30	0x3ca950a1	0.02066833
31	0x3b8fc9ae	0.0043880558
32	0x3c79a782	0.015237691
33	0x3bc2b8ec	0.0059424546
34	0xbbe4aaf1	-0.0069783856
35	0x3c63b2ed	0.01389764
36	0xbccd3e2c	-0.02505406
37	0xbd39dfb4	-0.045379356
38	0xbc5a90d4	-0.013340194
39	0xbc6d3dc1	-0.014480055
40	0xbc8fe23b	-0.01756393
41	0x3d2c769f	0.042105313
42	0xbcd6f4f2	-0.026239846
43	0xbd4f8724	-0.05066599
44	0xbcb1099a	-0.021611024
45	0xbc9c9004	-0.01911164
46	0x3afde5a1	0.0019370803
47	0xbcaca5d5	-0.021075169
48	0x3ab31e0e	0.0013665573
49	0x3bd4d4ad	0.0064950795
50	0x3c83ca88	0.016087785
51	0xbbaaa24e	-0.0052073365
52	0xbbbdf6c9	-0.0057972413
53	0xbca2c8e0	-0.019871175
54	0x3c81015e	0.015747722
55	0xba8a1404	-0.001053453
56	0x391f6151	0.00015199675
57	0xbb315bfe	-0.0027062888
58	0x3b19e312	0.0023481292
59	0xbac32593	-0.0014888517
60	0xbc51b521	-0.012799532
61	0x3c6cc416	0.014451047
62	0x3b900a1c	0.0043957364
63	0x3c53368d	0.012891424
64	0x3c891bdf	0.016736923
65	0x3b8c3dcc	0.0042798277
66	0x3b84c26f	0.0040514986
67	0x3d918383	0.07105162
68	0x3c2816bc	0.010259327
69	0xbd12306d	-0.035690714
70	0xbd4da551	-0.050206486
71	0xbc39e99b	-0.0113472
72	0xbb19afbf	-0.00234507
73	0xbabd8b72	-0.0014461114
74	0xbc3ebe42	-0.011642041
75	0x3cc13061	0.02358264
76	0xbc808dbc	-0.015692584
77	0x3b39d2db	0.002835444
78	0x3a82548f	0.0009943413
79	0xbc9b879f	-0.018985568
80	0x3c27639d	0.010216621
81	0xbc753d36	-0.014968207
82	0xbc450e49	-0.012027332
83	0x3c97306b	0.018455705
84	0x3bd844ca	0.006599997
85	0xbb80aea4	-0.003927069
86	0xba3d88b2	-0.0007230147
87	0x3bef93d3	0.007311323
88	0xbc391eb7	-0.011298827
89	0x3c2cc163	0.010544154
90	0x3bedf2b4	0.0072615985
91	0xbb39e086	-0.0028362586
92	0xbbfb398c	-0.007666772
93	0xbc1df46e	-0.009640796
94	0x3ba13252	0.0049193287
95	0x3d154f11	0.036452357
96	0x3d012d54	0.03153737
97	0x3d2ee783	0.042701256
98	0x3d711110	0.058854163
99	0xbc75141a	-0.014958406
100	0x3d3d0217	0.04614457
101	0xbc4fb565	-0.012677525
102	0xbd65cd02	-0.056103714
103	0xbbc7383e	-0.0060797026
104	0xbb889fe1	-0.0041694497
105	0xbc80c9ab	-0.015721163
106	0x3bb3322f	0.005468629
107	0x3bef49a0	0.007302478
108	0xbc63c9d0	-0.013903096
109	0xbc120b74	-0.008913863
110	0xbc49b594	-0.012311358
111	0xbc8face3	-0.017538493
112	0xbc4fc174	-0.0126804
113	0x3c1d5d19	0.009604716
114	0xbb8479a9	-0.0040428233
115	0xbb93a3b1	-0.0045055975
116	0x3ba5013c	0.0050355475
117	0xbbc75092	-0.006082603
118	0xbc3f7ea1	-0.0116879055
119	0xbc66e826	-0.014093434
120	0x3ca2d52b	0.019877037
121	0x3c7925ee	0.015206797
122	0x3c90d5f5	0.017680148
123	0x3ba26e65	0.0049570077
124	0x3bbb19fc	0.0057098847
125	0x3d142119	0.036164377
126	0x3b14681d	0.0022645064
127	0x3d300893	0.042976927
128	0xbd372e1a	-0.0447217
129	0xbc9ce3e0	-0.019151628
130	0x3d2379d2	0.0399111
131	0x3d00fee6	0.03149309
132	0xbcd930cd	-0.026512528
133	0xbc2a667e	-0.010400413
134	0xbce877cd	-0.028377438
135	0x3c70cf6a	0.014697889
136	0x3c03bbe1	0.008040399
137	0xbca0beb0	-0.019622177
138	0xbcb2ba01	-0.02181721
139	0xbbf0d338	-0.007349398
140	0x3c04ab27	0.0080974465
141	0xbbb2d43c	-0.005457429
142	0x3c7302c1	0.0148322
143	0xbbc1ef0b	-0.0059183887
144	0xbb087334	-0.002082062
145	0xbc9ca6f5	-0.01912258
146	0xbca176eb	-0.019710025
147	0xbc2eb381	-0.010662914
148	0xbbcf2664	-0.006321715
149	0x3c9c50f5	0.019081572
150	0x3c98715f	0.018608747
151	0x3c143fde	0.00904843
152	0x3c61d5d5	0.013783892
153	0x3c6177d4	0.013761479
154	0x3c1ce6f9	0.009576553
155	0x3c6b40fd	0.014358756
156	0xbc28d295	-0.010304113
157	0x3b9e7058	0.0048351698
158	0x3d62665f	0.05527341
159	0xbd11eaf5	-0.035624463
160	0x3c3c1c59	0.011481368
161	0xbce88a78	-0.02838634
162	0xbcc679dc	-0.024228029
163	0x3cadd4d4	0.021219648
164	0x38f594f8	0.00011710258
165	0x3c94e422	0.018175188
166	0x3c80e923	0.015736168
167	0x3c1e38b4	0.009657074
168	0xba86270e	-0.0010235028
169	0xbc61ce3f	-0.013782083
170	0x3c6fbc74	0.014632333
171	0xbb73117e	-0.0037089284
172	0x3abc5791	0.0014369359
173	0xbc505b53	-0.012717086
174	0xbc781b20	-0.015143186
175	0xbb98f0c5	-0.004667374
176	0x3c4b2494	0.012398858
177	0xbb833fe0	-0.004005417
178	0xbca3560d	-0.019938493
179	0xbb58a125	-0.0033055034
180	0xbc52be29	-0.0128627205
181	0x3c474d93	0.012164491
182	0xbc3fd9a9	-0.011709609
183	0xbb81678e	-0.0039491123
184	0x3c3ec547	0.011643714
185	0x3d00943e	0.031391375
186	0xbcd90d5b	-0.026495626
187	0x3cdd4709	0.027011411
188	0xbc0d4962	-0.008623453
189	0x3c2866e2	0.010278435
190	0xbc9e26df	-0.019305645
191	0xbc9b90df	-0.018989978
192	0xbc467c62	-0.012114616
193	0x3a831c21	0.001000289
194	0x3c01525b	0.00789317
195	0xbbf3cd42	-0.00744024
196	0x3c0e77a3	0.008695516
197	0x3c5fcf2c	0.0136602335
198	0xbca57f91	-0.02020243
199	0xbaae26ad	-0.0013286673
200	0x3c405fb2	0.011741566
201	0x3a7d0a90	0.0009652758
202	0xbc91253e	-0.017717954
203	0x3c7b3068	0.015331365
204	0xbc45b220	-0.012066394
205	0x3ca55598	0.020182416
206	0xbbf7b0b3	-0.007558906
207	0x3c0fd39e	0.008778481
208	0xbc8fb498	-0.017542168
209	0x3c1153a8	0.008870043
210	0xbcbefd2c	-0.023314081
211	0xbc4783d5	-0.012177427
212	0x3bb86218	0.005626928
213	0x3bfc5238	0.007700231
214	0x3c82843f	0.0159322
215	0xbd46999a	-0.04848633
216	0xbb59f27b	-0.0033256102
217	0xbc6d1bd6	-0.014471969
218	0xbcc2dd0d	-0.023787046
219	0xbd28b6d7	-0.041189995
220	0x3ccfc7ce	0.025363829
221	0xbc40bfb8	-0.011764459
222	0x3bb31253	0.005464831
223	0xbcc6d042	-0.024269227
224	0x3b8c7700	0.004286647
225	0x3bcfb900	0.0063391924
226	0xbc15f853	-0.009153443
227	0xbc970be6	-0.01843829
228	0xbc578d44	-0.013156239
229	0x3bde544f	0.0067849527
230	0xbbc778ed	-0.0060874135
231	0x3c5f61b5	0.013634135
232	0xbc6c84d8	-0.014435969
233	0x3c30da37	0.010794214
234	0x3ca4dfe9	0.0201263
235	0x3b8c3c70	0.0042796656
236	0xba3041b9	-0.00067236606
237	0xbc1a2a5e	-0.009409515
238	0xbc471c5a	-0.012152756
239	0xbbb5052a	-0.0055242972
240	0xbc0f7603	-0.0087561635
241	0xbc4fbda1	-0.012679488
242	0x3c167730	0.00918369
243	0x3c48dbca	0.012259433
244	0x3cb0fcc5	0.021604905
245	0xbc241101	-0.01001382
246	0xbc80f66a	-0.0157425
247	0x3c918a13	0.017766034
248	0xbc7d58a2	-0.015463026
249	0x394a8ed7	0.00019317433
250	0x3ac4fdba	0.001502923
251	0xbc68d941	-0.014211954
252	0x3c93484b	0.017978808
253	0x3b7698d3	0.0037627711
254	0x3c350de2	0.011050673
255	0xbc2101e6	-0.009827113

bias f4 [8]
0	0xbd79d6cf	-0.060995873
1	0x3ca65bec	0.020307504
2	0x3bd41b1d	0.0064729587
3	0xbd0f4493	-0.034977507
4	0xbc5a4f92	-0.013324635
5	0x3c99e9ad	0.018788183
6	0x3c8e4045	0.01736463
7	0x3cafd1f7	0.021462424
